{"architecture":{"class_name":"Functional","config":{"name":"sequential","trainable":true,"layers":[{"module":"keras.layers","class_name":"InputLayer","config":{"batch_input_shape":[null,28,28,1],"dtype":"float32","sparse":false,"ragged":false,"name":"input_1"},"registered_name":null,"name":"input_1","inbound_nodes":[]},{"module":"keras.layers","class_name":"Conv2D","config":{"name":"conv2d","trainable":true,"dtype":"float32","filters":32,"kernel_size":[3,3],"strides":[1,1],"padding":"valid","data_format":"channels_last","dilation_rate":[1,1],"groups":1,"activation":"relu","use_bias":true,"kernel_initializer":{"module":"keras.initializers","class_name":"GlorotUniform","config":{"seed":null},"registered_name":null},"bias_initializer":{"module":"keras.initializers","class_name":"Zeros","config":{},"registered_name":null},"kernel_regularizer":null,"bias_regularizer":null,"activity_regularizer":null,"kernel_constraint":null,"bias_constraint":null},"registered_name":null,"build_config":{"input_shape":[null,28,28,1]},"name":"conv2d","inbound_nodes":[[["input_1",0,0,{}]]]},{"module":"keras.layers","class_name":"MaxPooling2D","config":{"name":"max_pooling2d","trainable":true,"dtype":"float32","pool_size":[2,2],"padding":"valid","strides":[2,2],"data_format":"channels_last"},"registered_name":null,"build_config":{"input_shape":[null,26,26,32]},"name":"max_pooling2d","inbound_nodes":[[["conv2d",0,0,{}]]]},{"module":"keras.layers","class_name":"Conv2D","config":{"name":"conv2d_1","trainable":true,"dtype":"float32","filters":64,"kernel_size":[3,3],"strides":[1,1],"padding":"valid","data_format":"channels_last","dilation_rate":[1,1],"groups":1,"activation":"relu","use_bias":true,"kernel_initializer":{"module":"keras.initializers","class_name":"GlorotUniform","config":{"seed":null},"registered_name":null},"bias_initializer":{"module":"keras.initializers","class_name":"Zeros","config":{},"registered_name":null},"kernel_regularizer":null,"bias_regularizer":null,"activity_regularizer":null,"kernel_constraint":null,"bias_constraint":null},"registered_name":null,"build_config":{"input_shape":[null,13,13,32]},"name":"conv2d_1","inbound_nodes":[[["max_pooling2d",0,0,{}]]]},{"module":"keras.layers","class_name":"MaxPooling2D","config":{"name":"max_pooling2d_1","trainable":true,"dtype":"float32","pool_size":[2,2],"padding":"valid","strides":[2,2],"data_format":"channels_last"},"registered_name":null,"build_config":{"input_shape":[null,11,11,64]},"name":"max_pooling2d_1","inbound_nodes":[[["conv2d_1",0,0,{}]]]},{"module":"keras.layers","class_name":"Flatten","config":{"name":"flatten","trainable":true,"dtype":"float32","data_format":"channels_last"},"registered_name":null,"build_config":{"input_shape":[null,5,5,64]},"name":"flatten","inbound_nodes":[[["max_pooling2d_1",0,0,{}]]]},{"module":"keras.layers","class_name":"Dense","config":{"name":"dense","trainable":true,"dtype":"float32","units":10,"activation":"softmax","use_bias":true,"kernel_initializer":{"module":"keras.initializers","class_name":"GlorotUniform","config":{"seed":null},"registered_name":null},"bias_initializer":{"module":"keras.initializers","class_name":"Zeros","config":{},"registered_name":null},"kernel_regularizer":null,"bias_regularizer":null,"activity_regularizer":null,"kernel_constraint":null,"bias_constraint":null},"registered_name":null,"build_config":{"input_shape":[null,1600]},"name":"dense","inbound_nodes":[[["flatten",0,0,{}]]]}],"input_layers":[["input_1",0,0]],"output_layers":[["dense",0,0]]},"keras_version":"2.15.0","backend":"tensorflow"},"image_data_format":"channels_last","input_shapes":[[28,28,1]],"output_shapes":[[10]],"tests":[{"inputs":[{"shape":[28,28,1],"values":["…","…","…","…","BkOSP6m/Hr+2AJ+/gxfyPREOEMC/foa/I9UNvumNoz8rYoO/MDbBPnQnLEAvUY4/nUcSv2nMCsD5GTdAg4eIPw=="]}],"outputs":[{"shape":[10],"values":["tVdrNiYDBzckzPQ7SkDVPPaMdj8qFzk7f0woN+fbEDp5V8g08UgxNw=="]}]}],"trainable_params":{"conv2d":{"weights":["…","…"],"bias":["pWf5PWvPZbuAwse8/ILCvIR3KT0Ip9q8QojlPPktsz1rRSC8t9Y1PZVoybzXYBY9lJq+OQohZT0fgbE25fqXO8o6eLypBJg6DI4fPbTRkTYNtb27o12PuzdV97uPife6D0ehvJx3dTvTUla80s6CvJ0IrD14f3o9d56BvGVOd7g="]},"conv2d_1":{"weights":["…","…","…","…","…","…","…","…","…","…","…","…","…","…","…","…","…","…","…","…","…","…","…","…","…","…","…","…","…","…","…","…","…","…","…","…","…","…","…","…","…","…","…","…","…","…","…","…","…","…","…","…","…","…","…","…","…","…","…","…","…","…","…","…","…","…","…","…","…","…","…","…","…","…","…","…","…","…","…","…","…","…","…","…","…","…","…","…","…","…","…","…","…","…","…","…"],"bias":["…"]},"dense":{"weights":["…","…","…","…","…","…","…","…","…","…","…","…","…","…","…","…","…","…","…","…","…","…","…","…","…","…","…","…","…","…","…","…","…","…","…","…","…","…","…","…","…","…","…","…","…","…","…","…","…","…","…","…","…","…","…","…","…","…","…","…","…","…","…","…","…","…","…","…","…","…","…","…","…","…","…","…","…","…","…","…","…","…","…","…"],"bias":["J8swuruiBzwIthO8Neucu3c66LvkuOu7tJCFvOuSvztBaNy8omUiuw=="]}},"hash":"733acc441ad6726b57596e50c94937137c1c77fe5b913a8f8d157fb4f0f3bfe0"}